…
      "shape": [
        32
      ]
    },
    "prompt_encoder.xpe_head.1.0.weight": {
      "dtype": "torch.float32",
      "norm": 3.257322,
      "shape": [
        32,
        32
      ]
    },
    "prompt_encoder.xpe_head.1.3.bias": {
      "dtype": "torch.float32",
      "norm": 0.55272,
      "shape": [
        32
      ]
    },
    "prompt_encoder.xpe_head.1.3.weight": {
      "dtype": "torch.float32",
      "norm": 3.350547,
      "shape": [
        32,
        32
      ]
    }
  },
  "prompt_encoder_repr": "CrossPromptEncoder(\n  (embedding): ModulesToSaveWrapper(\n    (original_module): Embedding(4, 32)\n    (modules_to_save): ModuleDict(\n      (default): Embedding(4, 32)\n    )\n  )\n  (xpe_embedding): ModulesToSaveWrapper(\n    (original_module): Embedding(4, 32)\n    (modules_to_save): ModuleDict(\n      (default): Embedding(4, 32)\n    )\n  )\n  (xpe_head): ModulesToSaveWrapper(\n    (original_module): Sequential(\n      (0): LightweightSelfAttentionHead(\n        (self_attn): MultiheadAttention(\n          (out_proj): NonDynamicallyQuantizableLinear(in_features=32, out_features=32, bias=True)\n        )\n        (dropout): Dropout(p=0.0, inplace=False)\n        (layernorm): LayerNorm((32,), eps=1e-05, elementwise_affine=True)\n        (out_proj): Linear(in_features=32, out_features=32, bias=True)\n      )\n      (1): Sequential(\n        (0): Linear(in_features=32, out_features=32, bias=True)\n        (1): ReLU()\n        (2): Dropout(p=0.1, inplace=False)\n        (3): Linear(in_features=32, out_features=32, bias=True)\n      )\n    )\n    (modules_to_save): ModuleDict(\n      (default): Sequential(\n        (0): LightweightSelfAttentionHead(\n          (self_attn): MultiheadAttention(\n            (out_proj): NonDynamicallyQuantizableLinear(in_features=32, out_features=32, bias=True)\n          )\n          (dropout): Dropout(p=0.0, inplace=False)\n          (layernorm): LayerNorm((32,), eps=1e-05, elementwise_affine=True)\n          (out_proj): Linear(in_features=32, out_features=32, bias=True)\n        )\n        (1): Sequential(\n          (0): Linear(in_features=32, out_features=32, bias=True)\n          (1): ReLU()\n          (2): Dropout(p=0.1, inplace=False)\n          (3): Linear(in_features=32, out_features=32, bias=True)\n        )\n      )\n    )\n  )\n)"
}